…
g1D(7), layers.Dropout(0.4), layers.Bidirectional(layers.LSTM(128, return_sequences=True)), layers.Conv1D(128, 3, activation=&#39;relu&#39;), layers.MaxPooling1D(3), layers.Dropout(0.2), layers.Conv1D(64, 3, activation=&#39;relu&#39;), layers.GlobalMaxPooling1D(), layers.Dense(128, activation=&#39;relu&#39;), layers.Dense(50, activation=&#39;softmax&#39;) ]) lstm_model.summary() . Model: &#34;sequential&#34; _________________________________________________________________ Layer (type) Output Shape Param # ================================================================= embedding (Embedding) (None, 1400, 100) 3400000 _________________________________________________________________ conv1d (Conv1D) (None, 1390, 256) 281856 _________________________________________________________________ max_pooling1d (MaxPooling1D) (None, 198, 256) 0 _________________________________________________________________ dropout (Dropout) (None, 198, 256) 0 _________________________________________________________________ bidirectional (Bidirectional (None, 198, 256) 394240 _________________________________________________________________ conv1d_1 (Conv1D) (None, 196, 128) 98432 _________________________________________________________________ max_pooling1d_1 (MaxPooling1 (None, 65, 128) 0 _________________________________________________________________ dropout_1 (Dropout) (None, 65, 128) 0 _________________________________________________________________ conv1d_2 (Conv1D) (None, 63, 64) 24640 _________________________________________________________________ global_max_pooling1d (Global (None, 64) 0 _________________________________________________________________ dense (Dense) (None, 128) 8320 _________________________________________________________________ dense_1 (Dense) (None, 50) 6450 ================================================================= Total params: 4,213,938 Trainable params: 4,213,938 Non-trainable params: 0 _________________________________________________________________ . lstm_model.layers[0].set_weights([emb_matrix]) lstm_model.layers[0].trainable = False lstm_model.summary() . Model: &#34;sequential&#34; _________________________________________________________________ Layer (type) Output Shape Param # ================================================================= embedding (Embedding) (None, 1400, 100) 3400000 _________________________________________________________________ conv1d (Conv1D) (None, 1390, 256) 281856 _________________________________________________________________ max_pooling1d (MaxPooling1D) (None, 198, 256) 0 _________________________________________________________________ dropout (Dropout) (None, 198, 256) 0 _________________________________________________________________ bidirectional (Bidirectional (None, 198, 256) 394240 _________________________________________________________________ conv1d_1 (Conv1D) (None, 196, 128) 98432 _________________________________________________________________ max_pooling1d_1 (MaxPooling1 (None, 65, 128) 0 _________________________________________________________________ dropout_1 (Dropout) (None, 65, 128) 0 _________________________________________________________________ conv1d_2 (Conv1D) (None, 63, 64) 24640 _________________________________________________________________ global_max_pooling1d (Global (None, 64) 0 _________________________________________________________________ dense (Dense) (None, 128) 8320 _________________________________________________________________ dense_1 (Dense) (None, 50) 6450 ================================================================= Total params: 4,213,938 Trainable params: 813,938 Non-trainable params: 3,400,000 _________________________________________________________________ . from keras.optimizers import RMSprop optim = RMSprop(lr=1e-4) lstm_model.compile( loss=&#39;CategoricalCrossentropy&#39;, optimizer=optim, metrics=[&#39;acc&#39;] ) lstm_history = lst
…
